assets/stress_level_predictor.tflite (tflite, 2828 bytes, 4 tensors)

sequential/dense_1/BiasAdd/ReadVariableOp f4 [5]
00000000: 74cb 003e 251e a83f aed9 24bd 9bde 0dbf
00000010: 00a8 0abf
0.12577611 1.3134199 -0.040246658 -0.55417794 -0.541626

sequential/dense/BiasAdd/ReadVariableOp f4 [20]
00000000: e23d 853f 6852 20bd 1fd2 b1be 8013 d6be
00000010: 8e3d 6e3f 51d6 cfbe 0000 0000 6540 f8be
00000020: 406e 0dbe 0000 0000 904b 8c3f a8f4 633f
00000030: 530a ddbd 7549 25bd 2139 abbe 0000 0000
00000040: c707 7e3f dd57 62bd 4db4 c3be a027 d13f
1.040951 -0.03914109 -0.34730622 -0.41811752 0.93062675 -0.40593198 0.0 -0.4848663
-0.13811588 0.0 1.096056 0.8904519 -0.10792985 -0.040353257 -0.33442023 0.0
0.9923062 -0.055259574 -0.38223496 1.6340218

sequential/dense/MatMul f4 [20, 8]
00000000: f897 b03d 7d5f 263c 11d8 3440 537a 10c0
00000010: b7a8 be3f c326 7f3f efbe a03f 26f2 3dbf
00000020: 98e2 b7be b279 6cbe 4dd8 cdbe f7d8 7e3e
00000030: c3c0 ab3e ada5 99be e8a6 773e 2731 18be
00000040: 70eb 2a3f 0e5f 023d 538b b03f c47d f3bf
00000050: 4b32 2dbe 8633 cb3f d8c2 bec0 57e5 bdbd
00000060: 826b b43f 84c1 8c3e 6a4b 33c0 93c5 6b40
00000070: 2039 29c0 e268 963f d97e 9abf ac59 a03f
00000080: 28de 8fbf 5025 e93f 7fa5 cf3f 806d d2bf
00000090: cb24 b33f 210e 973f 6c9b 353f 8e55 20be
000000a0: 80cf 953f 9907 8d3f 30ab 24c0 8626 4b40
000000b0: bfec 1ac0 828e cb3f f57f 19c0 3334 293f
000000c0: 37e7 dbbe 68e9 44bd a9cc c1be d44e a83e
000000d0: 3025 dcbe 30a3 823c 3e8b 3dbe fc5a 6bbe
000000e0: 53ed 2340 2cfd 08bf 5118 23bf d441 f73f
000000f0: 5644 53bf 743d 0abe 5210 c9bf 0bf2 ac3f
00000100: d952 333f 9110 013f 2e11 b93f af12 e8bf
00000110: 592d 1b3f 9763 263f 4014 02c0 7ae6 24be
00000120: 6206 85be 70d9 b83d 885a a53d 34cf 25be
00000130: a7da 9fbe 8dba aebe b0b4 643e 4890 e63d
00000140: 3b53 f7bd d1ed 0b3f 1ca9 3340 97fa 08c0
00000150: a109 f53f 12f1 043f 9d59 cb3f dc43 fa3b
00000160: bf0c fdbe a7da 2a3f d54f 17bf 2918 c13f
00000170: f88c 203f 8102 a93e b845 0040 728d 203f
00000180: 3684 6a3f ebb9 013f f49b 72bf f8df 2440
00000190: 1bbd 67bf fdfc a63f f249 60c0 395a 643f
000001a0: cd11 b5bd 6621 20be ebcb 933e f49a b3be
000001b0: 1582 7fbe 01cd fabe 539b bb3e d71e c6bd
000001c0: 4f97 e73f 0f82 92bf 6f13 cd3e ccf1 cbbe
000001d0: 9131 1bbf 0bd6 b7bd 85a7 f03f 19a4 393f
000001e0: 2458 f6bd 728d c9be 0047 bbbe 00e8 9e3e
000001f0: 3a5a 05be 80e0 6ebd c4aa 39be ead8 a3be
00000200: d5ad 083c f0fd 13bc 92c1 0c40 5f30 0dc0
00000210: ec89 a93f 5d44 fa3e 8206 5340 6c5e 713e
00000220: d326 2a3e 7390 ac3e 9c2c af3f 11ef dfbf
00000230: 6bb3 dc3f 2213 dabf 4925 1340 ed24 64bf
00000240: 9c8a 573f 82eb aebf 61a3 4840 748f f7bf
00000250: 68ad 4240 a33b 2c3e 90ea 1ac1 da6b 7cbe
00000260: 9b32 07c0 db05 5a3e b4e3 cf3f 2f93 e0bd
00000270: 8874 1540 ac2f 58bf d6c5 4840 ec60 8abf
0.08622736 0.010154602 2.8256876 -2.257466 1.4895238 0.9966852 1.2558268 -0.74197614
-0.35915065 -0.23093298 -0.40204087 0.24887453 0.33545503 -0.30009213 0.24184763 -0.148625
0.667655 0.031828932 1.3792518 -1.9022756 -0.16913716 1.5875099 -5.9612846 -0.09272259
1.4095309 0.2749139 -2.801478 3.683934 -2.6441116 1.1750758 -1.2069961 1.2527366
-1.1239672 1.8214512 1.622238 -1.6439667 1.3995603 1.1801187 0.7094028 -0.15657637
1.1703949 1.1017944 -2.5729485 3.1742263 -2.4206998 1.5902865 -2.3984349 0.66095275
-0.4294984 -0.048074156 -0.37851456 0.3287264 -0.42997122 0.015946954 -0.18510148 -0.22983927
2.5613601 -0.5351131 -0.6370898 1.9316964 -0.8252615 -0.13500005 -1.5708106 1.3511366
0.7004829 0.50415903 1.4458368 -1.8130702 0.6061607 0.6499571 -2.032486 -0.16103545
-0.25981432 0.09025848 0.08073908 -0.16192323 -0.31221506 -0.34126702 0.22334552 0.11257988
-0.12076422 0.54659754 2.8071966 -2.1402948 1.9143564 0.51930344 1.5886723 0.007637484
-0.49423787 0.66739887 -0.5910619 1.5085498 0.627151 0.33009723 2.0042553 0.6271583
0.9160799 0.50674313 -0.94769216 2.57617 -0.9052293 1.3045956 -3.5045133 0.8920017
-0.08841286 -0.1563774 0.28866515 -0.35079157 -0.24951966 -0.4898453 0.3664194 -0.09673851
1.8093051 -1.1445941 0.4005389 -0.39832914 -0.6062251 -0.08976372 1.8801123 0.7251602
-0.1202853 -0.39365727 -0.36577606 0.31036377 -0.130227 -0.05831957 -0.18131548 -0.3200143
0.008342226 -0.009032711 2.1993146 -2.2060773 1.3245215 0.48880282 3.2972722 0.23571175
0.16616373 0.33703956 1.3685489 -1.7494832 1.7242254 -1.7037089 2.2991507 -0.89118844
0.84195876 -1.3665621 3.1349719 -1.9340653 3.0418339 0.16819625 -9.682266 -0.24650517
-2.1124637 0.21291296 1.6241364 -0.10965573 2.3352375 -0.8444774 3.137075 -1.0810828

sequential/dense_1/MatMul f4 [5, 20]
00000000: 8375 ef3e 1390 b8be cd5f c3c0 83de 0bc1
00000010: d504 4c3f 3b99 0ac1 7c0e b5be 5ab7 adc0
00000020: 9cfa a7bf 2918 ae3e 8b3b 233f e857 9c3f
00000030: 417f d7c0 6ac0 9bbe 7ee7 183f 28c2 573d
00000040: d999 753f d209 5f40 0fec 8ec0 60d7 1140
00000050: 2949 993f 8f63 bfbe fcf4 cdbf 60fc 0dc1
00000060: d3af 5a3f 85cf 0ac1 9654 c2be feb2 30be
00000070: 4fec 77be d472 903d c750 823f f677 8d3f
00000080: d274 42bf c02d 053d 3897 3e40 c2b6 3b3e
00000090: c3e1 803f 1fca e8c0 b4d4 6cc0 e8b2 9f3f
000000a0: 5a0b a23f 02e4 92bd a1d2 00be d5af 05c0
000000b0: 85e0 b13f 9112 e8bd 10f9 90be 41b2 bbbf
000000c0: 3e7a 1040 06a2 5fbe 6027 6e3f fdb0 78bd
000000d0: e3e1 533f 6681 c9be b7d9 92c0 3c84 39be
000000e0: 882f 0dbe 1e0e f2bd 6a46 9abf 7bcb 0f3e
000000f0: 7b26 023f 0483 e63e 7bb9 5840 961d 3b3f
00000100: c64e ddbe f02f 333f 43d9 e03e e182 433f
00000110: d5e0 8f3f a26a 0e3e 7b95 ab3e 8215 62bf
00000120: b454 223e 6067 99bd a380 2e40 a727 e43e
00000130: c082 f53d 3088 3e40 1ec7 9f40 bf9a b8c0
00000140: ae2b 8ac0 e0f8 e73d da77 9ac0 fc47 3a40
00000150: d5ac e0bf 7e0e 1140 3692 4b3e ab37 a13f
00000160: 3fe9 9ec0 1043 75be 1cb1 0cc0 2b1f 3f3f
00000170: a367 d23f 27fa 563e 79d6 b7be 88eb 46bd
00000180: a9de 77c0 91fb 84be 70da c240 601b 633f
0.46769342 -0.3604742 -6.1054444 -8.741824 0.79694873 -8.66241 -0.35362613 -5.428632
-1.3123355 0.34002808 0.6376273 1.2214327 -6.734284 -0.30420238 0.5972823 0.052675396
0.9593788 3.4849744 -4.4663157 2.2787704 1.1975452 -0.37380645 -1.6090388 -8.874115
0.85424536 -8.675664 -0.3795516 -0.1725578 -0.24211238 0.07053152 1.0180901 1.1052234
-0.75959504 0.032514334 2.9779797 0.18331435 1.0068897 -7.274673 -3.7004824 1.2476473
1.2659714 -0.07172395 -0.12580349 -2.088857 1.3896643 -0.11331666 -0.2831502 -1.4663774
2.257461 -0.21839151 0.9302883 -0.060715664 0.8276655 -0.39356536 -4.5890765 -0.1811685
-0.13787663 -0.11819099 -1.2052739 0.14042465 0.50839967 0.45021832 3.3863208 0.7309202
-0.43224162 0.6999502 0.43915758 0.7637158 1.1240488 0.13907865 0.33512482 -0.8831407
0.15852624 -0.0749042 2.7266014 0.44561502 0.11987829 2.9770622 4.9930563 -5.76889
-4.317832 0.11326766 -4.8271303 2.9106436 -1.7552744 2.2665095 0.19879994 1.2595114
-4.9659724 -0.23951364 -2.19831 0.74656934 1.6437877 0.20993863 -0.35905817 -0.048564464
-3.872965 -0.2597318 6.0891647 0.88713646
